unit_2/proj_2/part2-mnist/mnist_model_fully_connected.pt (torch, 34079 bytes, 4 tensors)

weight f4 [10, 784]
0	0x3cf1dd72	0.029524539
1	0xbbd82330	-0.0065959916
2	0xbd0f5985	-0.03499748
3	0x3c28593c	0.010275181
4	0x3d07724d	0.03306799
5	0x3cfe56fe	0.03104734
6	0xbd1016e0	-0.035178065
7	0x3d03abd9	0.03214631
8	0x3c3195b8	0.010838918
9	0xbd06b2ff	-0.032885548
10	0x3d0c707f	0.034286972
11	0x3b01a650	0.0019782968
12	0x3bd381bd	0.006454675
13	0x3c8c16b6	0.017100673
14	0x3c2e3b02	0.010634186
15	0xbcaee1f4	-0.021347977
16	0x3ca78680	0.020449877
17	0x3ccef478	0.025263056
18	0xbc96d14e	-0.018410351
19	0x3c8d6124	0.017258234
20	0xbbd017b0	-0.00635048
21	0xbcbdbc9e	-0.023161229
22	0xbc60f5ae	-0.01373045
23	0xbb8900c0	-0.0041809976
24	0xbca0f045	-0.01964582
25	0x3ca4752e	0.020075407
26	0x3cac4dde	0.021033224
27	0xbc8aa7aa	-0.016925652
28	0xbcb59ef0	-0.022170514
29	0x36d5a000	6.366521e-06
30	0x3c0019e0	0.007818669
31	0x3caf42d0	0.021394163
32	0xbb994fc8	-0.0046787
33	0xbcbb1ea5	-0.02284176
34	0x3bcbc184	0.006218137
35	0x3d3239a2	0.043511994
36	0x3d59e295	0.0531946
37	0x3d35511f	0.044266816
38	0x3c987127	0.018608643
39	0xbb6195a6	-0.0034421473
40	0x3cb9a67b	0.022662392
41	0x3ba6490d	0.0050746263
42	0x3d414fc9	0.04719523
43	0xbb8e53d4	-0.004343489
44	0xbd57e95d	-0.052712787
45	0x3c48ac85	0.012248163
46	0x3c2ebc85	0.010665064
47	0x3cd398be	0.02582967
48	0x3ca595f4	0.020213105
49	0xbcefaa45	-0.029255996
50	0xbca64da5	-0.020300696
51	0x3d14b261	0.036302928
52	0x3c91b124	0.017784663
53	0x3c8dd050	0.017311245
54	0xbc6c23e0	-0.01441285
55	0xbd09ab88	-0.03361085
56	0xbc6e1778	-0.014531963
57	0xbcb564aa	-0.022142727
58	0xbc5fc405	-0.013657575
59	0x3d02f945	0.031976003
60	0x3ce03a47	0.027371539
61	0x3ccf8009	0.025329607
62	0xbb97a97a	-0.0046283575
63	0x3dacf4d6	0.08445136
64	0x3d8eeb3b	0.069784604
65	0x3d1ce33a	0.038302638
66	0x3dcf6d3d	0.101282574
67	0x3c9d2378	0.019181952
68	0x3d654381	0.05597258
69	0x3d9c6c2a	0.07637818
70	0x3d181d90	0.037137568
71	0x3d69aa45	0.057047147
72	0x3cb84f9d	0.0224989
73	0x3d036808	0.032081634
74	0x3d889430	0.066688895
75	0x3dc59eed	0.09649453
76	0x3da26ee4	0.07931307
77	0x3d897a97	0.06712835
78	0x3d193f8f	0.03741413
79	0x3c5b42c2	0.0133826155
80	0xbd10c594	-0.035344675
81	0xbd65a0c9	-0.05606154
82	0x3bf99be8	0.0076174624
83	0xbc1bc9b2	-0.009508537
84	0x3ba51f48	0.0050391294
85	0x3c134aa0	0.00898996
86	0xbcf48185	-0.029846916
87	0x3cbfcff5	0.023414591
88	0x3d15825a	0.036501266
89	0xbcf85d5d	-0.030317957
90	0x3d859f8e	0.06524573
91	0x3ded3a7d	0.115834214
92	0x3dece3c1	0.11566878
93	0x3d24e1ac	0.04025428
94	0x3d1ce60f	0.03830534
95	0x3c56eec4	0.01311845
96	0xbdf37453	-0.118874215
97	0xbd49dc96	-0.049282633
98	0xbd9423ce	-0.07233392
99	0xb99a656b	-0.0002944873
100	0xbdd1fe21	-0.10253549
101	0x3d7c2a74	0.061563924
102	0x3e780de2	0.24224046
103	0x3e2c4e97	0.16826855
104	0x3d5850c9	0.052811418
105	0x3e0569f2	0.13028696
106	0x3e30d0fc	0.17267221
107	0x3ddcf7ef	0.10789477
108	0xbc8debb8	-0.017324314
109	0xbd91e86f	-0.07124411
110	0xbc93da26	-0.018048357
111	0xbcdd7753	-0.027034437
112	0xbd120e86	-0.035658382
113	0xbcc4bc99	-0.024015712
114	0x3c9d6c68	0.019216731
115	0x3c13b11f	0.009014397
116	0xbbf1c29e	-0.0073779365
117	0x3d2fc897	0.042915907
118	0xbd204f86	-0.03913834
119	0xbd0c8c3a	-0.034313418
120	0xbd282057	-0.041046467
121	0xbdfb8a38	-0.122822225
122	0xbe253860	-0.16134787
123	0xbd8c3d0a	-0.0684758
124	0xbdd723e6	-0.10504894
125	0xbd69774b	-0.056998532
126	0xbe138fb9	-0.14410295
127	0xbe1108bc	-0.14163488
128	0xbce469f2	-0.02788255
129	0x3d8cbff5	0.068725504
130	0x3d10ec60	0.035381675
131	0x3e040df1	0.12895943
132	0x3e3fa18d	0.1871397
133	0x3e275b9f	0.16343544
134	0x3e9548bf	0.29157063
135	0x3e993c67	0.29928896
136	0x3da401a1	0.08008123
137	0xbd1e8244	-0.03869845
138	0x3c2c7178	0.0105251
139	0x3d25392a	0.04033772
140	0x3c22d590	0.009938613
141	0xbcf01841	-0.02930844
142	0x3c619822	0.013769181
143	0xbc8043ff	-0.015657423
144	0xbcf95ce7	-0.030439807
145	0xbd28bad3	-0.041193794
146	0xbdbcf1d5	-0.09225813
147	0xbd8822a0	-0.06647229
148	0x3c60152c	0.013676923
149	0xbd160e82	-0.03663493
150	0xbd937537	-0.07200091
151	0x3de6d3ff	0.11270904
152	0x3d22816d	0.03967421
153	0xbd4bdea4	-0.049772874
154	0xbd354584	-0.04425575
155	0xbe24239e	-0.16029212
156	0xbe64f64a	-0.22359577
157	0x3ce657ea	0.028118093
158	0xbe1696ac	-0.14705914
159	0x3cea43b4	0.028596736
160	0x3ddccdcd	0.10781441
161	0xbdc4b410	-0.09604657
162	0x3d888c2d	0.066673614
163	0x3e165f02	0.1468468
164	0x3e774fab	0.24151485
165	0x3d006220	0.03134358
166	0x3d3f5282	0.046709545
167	0xbc4678fe	-0.012113808
168	0xbd0f0b60	-0.034922957
169	0xbcbb7aee	-0.022885766
170	0x3cae0c44	0.021246083
171	0xbd427016	-0.047470175
172	0xbc85b643	-0.01632226
173	0xbd4f84a1	-0.050663594
174	0xbd7ffc69	-0.062496576
175	0x3bac199e	0.0052520772
176	0x3b8f91a5	0.004381376
177	0x3d0093de	0.031391017
178	0xbe573181	-0.21014978
179	0x3b2ee3c5	0.0026686054
180	0xbc9fabf7	-0.019491179
181	0xbde3cae9	-0.111226864
182	0x3d067b09	0.03283218
183	0x3d933165	0.07187156
184	0xbdab24e1	-0.083566435
185	0x3acb009e	0.0015487855
186	0xbe0f0a9d	-0.13968892
187	0x3ded9754	0.11601129
188	0x3d796f4e	0.060897164
189	0xbe0d36b2	-0.13790396
190	0xbcbb68af	-0.022877065
191	0x3e137720	0.14400911
192	0x3e321a2f	0.17392801
193	0x3d07d45d	0.03316151
194	0xbcf37088	-0.029716745
195	0x3b5f6520	0.0034087375
196	0x3b96985b	0.004595799
197	0xbcd6e482	-0.026232008
198	0xbcc1700b	-0.023612997
199	0xbdb25eb1	-0.08709467
200	0xbe383564	-0.17989117
201	0xbe4e8e32	-0.2017143
202	0xbe887dee	-0.26658577
203	0xbdf25159	-0.11831922
204	0xbe3533e0	-0.1769557
205	0x3c92e0a3	0.01792938
206	0x3d6549a8	0.055978447
207	0xbddf4cb8	-0.10903305
208	0xbd4fd1a2	-0.05073703
209	0xbd530a23	-0.05152334
210	0xbbee15d2	-0.007265785
211	0x3ea5c3de	0.32375997
212	0x3dcda079	0.10040373
213	0x3e246c47	0.1605693
214	0x3dc06e50	0.093960404
215	0x3dd15ab2	0.10222377
216	0x3e0c9ecf	0.13732456
217	0x3da56c22	0.08077265
218	0xbcf32652	-0.029681358
219	0x3e38c72d	0.1804473
220	0x3e80a533	0.25126037
221	0x3d518d95	0.051160414
222	0xbc6fc09d	-0.014633325
223	0xbc389e5d	-0.0112682255
224	0xbc6ebaab	-0.014570872
225	0xbcc5a444	-0.02412618
226	0xbcb09420	-0.021555007
227	0xbde732ae	-0.11288963
228	0xbe1056a8	-0.14095557
229	0xbd4f45fa	-0.050603844
230	0xbe095fd0	-0.13415456
231	0xbcba7884	-0.022762544
232	0x3d35d1ae	0.04438942
233	0x3e2ccf15	0.1687587
234	0xbe0d7bc6	-0.13816747
235	0x3cf12899	0.029438304
236	0xbd0203d5	-0.031741936
237	0x3e108fa7	0.14117299
238	0xbc3f8376	-0.011689058
239	0xbceb8455	-0.028749624
240	0xbc606891	-0.013696806
241	0xbd332154	-0.043732956
242	0x3da14ad7	0.07875603
243	0xbe146157	-0.14490257
244	0xbe325f2f	-0.17419122
245	0xbd6ecbf0	-0.05829996
246	0xbdda6a18	-0.10664767
247	0xbd2cf70c	-0.04222779
248	0x3e953c1e	0.29147428
249	0x3d8df32f	0.06931149
250	0x3d283d79	0.04107425
251	0xbc863d2a	-0.016386587
252	0xbc2ab067	-0.010418034
253	0xbcf69154	-0.030098595
254	0xbd209251	-0.03920204
255	0xbe0d5a6c	-0.13804024

bias f4 [10]
0	0x3eca7db4	0.3954903
1	0x3f53575b	0.8255517
2	0xbe8d74b3	-0.27628097
3	0xbf40a5b5	-0.7525285
4	0xbe95d5a7	-0.29264566
5	0x3f53ac22	0.8268453
6	0x3f07a50e	0.5298623
7	0x3e24e41f	0.16102646
8	0x3f8fcf43	1.1235126
9	0xbd723f64	-0.059142485

weight f4 [10, 10]
0	0xbeebbf81	-0.46044543
1	0xbd8a3953	-0.06749215
2	0x3f1d59e3	0.6146528
3	0xbf9f2677	-1.2433614
4	0xbf2235e3	-0.63363475
5	0xbc2ac507	-0.010422952
6	0xbdb27ac6	-0.087148234
7	0x3d432780	0.047645092
8	0xbd3083e6	-0.04309454
9	0x3fba0c5a	1.4535019
10	0x3eaa0fec	0.33215272
11	0xbf88c5d2	-1.068537
12	0xbff3dbc2	-1.905144
13	0x3ebdb52c	0.37052286
14	0x3f95727b	1.1675562
15	0x3ebbfd48	0.36716676
16	0xbf62f742	-0.88658535
17	0x3e35f9ee	0.17771122
18	0x3f643752	0.8914691
19	0xbf53dc87	-0.82758373
20	0xbfb6ccc4	-1.428124
21	0xbe7526d7	-0.23940597
22	0x3f3fb58d	0.748864
23	0xbe71c19d	-0.23609014
24	0x3f1a78eb	0.60340756
25	0xbeae00f2	-0.33985096
26	0x3f5cabc9	0.86199623
27	0x3f0b6b4b	0.5446059
28	0x3f3ffbbc	0.7499349
29	0x3e2a2268	0.16614687
30	0xbf21bad2	-0.6317569
31	0x3f01e382	0.50737774
32	0xbdcbb65c	-0.09946892
33	0x3f8f2be4	1.1185269
34	0x3f2f4f13	0.6848003
35	0xbf412d01	-0.75459296
36	0x3e9c0730	0.30474234
37	0x3c0865b9	0.008325034
38	0x3e969f5e	0.29418463
39	0x3e75e599	0.24013366
40	0x3efddffc	0.4958495
41	0x3db7d13b	0.089754544
42	0x3f281a80	0.65665436
43	0x3f32a250	0.6977892
44	0xbf314e04	-0.6925967
45	0x3e936ecb	0.28795466
46	0x3f70dfc6	0.9409145
47	0xc0047981	-2.069916
48	0xbee0ecef	-0.43930766
49	0xbf6ee421	-0.9331685
50	0xbde8b2b4	-0.1136221
51	0xbedd9bfc	-0.4328307
52	0xbe1d68fc	-0.1537208
53	0x3f7e1c2e	0.9926175
54	0xbf74ee33	-0.95675963
55	0x3f84c935	1.0373904
56	0x3ed8df90	0.42358065
57	0x3fb45b26	1.4090316
58	0xbdf06c64	-0.11739424
59	0x3ed83eba	0.42235357
60	0x3f2c7f2d	0.67381555
61	0xbf35cd57	-0.7101645
62	0x3eb15109	0.34632137
63	0xbfa01041	-1.250496
64	0xbf6d0321	-0.925829
65	0xbf9199d6	-1.1375072
66	0xbf3ef769	-0.7459627
67	0x3f38ecb5	0.72236186
68	0x3f89ecf2	1.0775435
69	0x3ea8c681	0.32963946
70	0x3ebc5ad4	0.36788046
71	0x3fbae914	1.460238
72	0xbedd77b9	-0.43255404
73	0xbf954098	-1.1660337
74	0x3db6874d	0.08912525
75	0x3f5b6342	0.8569833
76	0xbf153ba5	-0.58294135
77	0x3ed3fb4c	0.41402662
78	0xbde478f5	-0.11155883
79	0xbf89da25	-1.0769697
80	0x3f4d3b3a	0.801685
81	0xbf44c7eb	-0.7686755
82	0x3ed69c90	0.41916323
83	0x3eff0a9a	0.49812776
84	0x3eec10b5	0.46106496
85	0x3cab07ba	0.020877708
86	0xbf7bdf7f	-0.983879
87	0xbe5700d3	-0.20996408
88	0xbf3db263	-0.7410032
89	0x3eebd88a	0.46063644
90	0x3f0914a8	0.53547144
91	0x3f29a923	0.6627371
92	0xbd748920	-0.059701085
93	0x3ee9d629	0.45671204
94	0x3e972a0c	0.29524267
95	0xbec9d214	-0.3941809
96	0x3f44678b	0.76720494
97	0xbf721ba5	-0.9457343
98	0xbff8c7e7	-1.9436005
99	0xbe0b69cc	-0.13614577

bias f4 [10]
0	0xbe1c2dd5	-0.15251859
1	0x3ed066cb	0.40703425
2	0xbec1447c	-0.37747562
3	0xbeb46cf6	-0.3523938
4	0x3e38a6c5	0.18032368
5	0x3f2274c8	0.63459444
6	0x3db0f781	0.086409576
7	0xbe48064b	-0.1953365
8	0xbf0acee7	-0.5422196
9	0x3e855234	0.26039279
